checkpoints/1x_binary_mask_smooth.pth (torch, 97010 bytes, 28 tensors)

body.0.weight f2 [24, 3, 3, 3]
0	0x8fbf	-0.0004728
1	0x2f94	0.1184
2	0x311a	0.1594
3	0x3011	0.1271
4	0xafbb	-0.1208
5	0x3094	0.1431
6	0x3230	0.1934
7	0xa998	-0.0437
8	0xb1f0	-0.1855
9	0xac7e	-0.0702
10	0x2a2e	0.04828
11	0xab34	-0.05627
12	0xb34e	-0.2283
13	0x1d59	0.005222
14	0x3240	0.1953
15	0x3098	0.1436
16	0x2c7b	0.07
17	0xa61e	-0.0239
18	0xb2f9	-0.2179
19	0xadc3	-0.09
20	0x30bf	0.1483
21	0xb138	-0.1631
22	0x2d77	0.0854
23	0x212f	0.010124
24	0xad30	-0.08105
25	0xae9a	-0.10315
26	0xa207	-0.01177
27	0xae01	-0.0938
28	0x2ab0	0.05225
29	0x324b	0.1967
30	0xae51	-0.0987
31	0xa8ec	-0.03845
32	0xae9a	-0.10315
33	0xb3c1	-0.2423
34	0xb12e	-0.1619
35	0x3279	0.2023
36	0x3127	0.161
37	0x2c73	0.0695
38	0xa215	-0.01188
39	0xaaeb	-0.05405
40	0x3025	0.1295
41	0x2bc0	0.06055
42	0xa4df	-0.01903
43	0x2c07	0.0629
44	0xb0f6	-0.155
45	0xb077	-0.1395
46	0xb23a	-0.1946
47	0x3031	0.131
48	0x2651	0.02467
49	0xa720	-0.02783
50	0x3099	0.1437
51	0xb013	-0.1273
52	0x300b	0.1263
53	0x31bc	0.1792
54	0xb24e	-0.197
55	0x2c39	0.066
56	0xacda	-0.0758
57	0x2ee4	0.10767
58	0xb2c9	-0.212
59	0xa371	-0.014534
60	0x2c24	0.0647
61	0xa9c8	-0.04517
62	0xb170	-0.1699
63	0xb29e	-0.2068
64	0x2e96	0.1029
65	0x30f5	0.1549
66	0x3271	0.2013
67	0x2cc7	0.07465
68	0x31eb	0.1849
69	0xaf44	-0.1135
70	0x313f	0.164
71	0x9b0f	-0.003447
72	0x2bc5	0.0607
73	0xab4a	-0.05695
74	0xac1b	-0.06415
75	0xa982	-0.04303
76	0xb2c9	-0.212
77	0x2b85	0.05875
78	0x2fd5	0.1224
79	0xac41	-0.06647
80	0x2e21	0.09576
81	0x2e7f	0.1015
82	0x300c	0.1265
83	0xb0e1	-0.1525
84	0xb1c7	-0.1805
85	0xa327	-0.01397
86	0x348e	0.2847
87	0xb05b	-0.1361
88	0xb15a	-0.1672
89	0xb20e	-0.1892
90	0x2fc5	0.1214
91	0xaa73	-0.05038
92	0xae6e	-0.10046
93	0xadb4	-0.0891
94	0x33f7	0.2489
95	0x3470	0.2773
96	0x283c	0.03308
97	0xa9a6	-0.04413
98	0xb414	-0.255
99	0xaf0e	-0.1102
100	0xadb8	-0.08936
101	0xb327	-0.2235
102	0x3063	0.1371
103	0x2c02	0.0626
104	0xacb4	-0.0735
105	0xb2b5	-0.2096
106	0x2ce4	0.0764
107	0x2577	0.02135
108	0x3013	0.1273
109	0xa817	-0.03195
110	0x29b7	0.04465
111	0xa893	-0.03574
112	0xaa00	-0.04688
113	0x311d	0.1598
114	0xa933	-0.04062
115	0x2c95	0.0716
116	0xb0f0	-0.1543
117	0x32c8	0.2119
118	0xb061	-0.1368
119	0x2dfc	0.0935
120	0xb1fb	-0.1869
121	0x2ada	0.05353
122	0xad81	-0.086
123	0x32cc	0.2124
124	0x335b	0.2299
125	0xa5b5	-0.0223
126	0x222a	0.01204
127	0x2a73	0.05038
128	0x2d50	0.083
129	0xafed	-0.12384
130	0xaf07	-0.1098
131	0xae6b	-0.1003
132	0xb035	-0.1315
133	0xa92e	-0.04047
134	0xa50e	-0.01974
135	0xad45	-0.08234
136	0xadc4	-0.0901
137	0x2e55	0.09894
138	0xb1c1	-0.1798
139	0xb0f2	-0.1545
140	0x30e3	0.1527
141	0xae7b	-0.10126
142	0x2aeb	0.05405
143	0xb0df	-0.1522
144	0x3373	0.2328
145	0xb1d5	-0.1823
146	0x2c87	0.07074
147	0x2d7e	0.0858
148	0x2a04	0.047
149	0x2a3d	0.04874
150	0xb3c1	-0.2423
151	0x3438	0.2637
152	0x2c84	0.07056
153	0xae1d	-0.0955
154	0x2e75	0.1009
155	0xb273	-0.2015
156	0x29e7	0.0461
157	0xad41	-0.0821
158	0x3112	0.1584
159	0xb311	-0.2208
160	0xa6dd	-0.02681
161	0xb168	-0.169
162	0xaf4b	-0.11395
163	0x2851	0.03372
164	0x2ae8	0.05396
165	0x29a3	0.04404
166	0x298d	0.04337
167	0xb1a1	-0.1759
168	0x3196	0.1746
169	0x1f0b	0.006878
170	0x2fa9	0.1197
171	0xaae0	-0.0537
172	0x3237	0.1942
173	0xb414	-0.255
174	0xac12	-0.0636
175	0x2864	0.0343
176	0x2501	0.01955
177	0x2e10	0.0947
178	0xa5e5	-0.02303
179	0x2ada	0.05353
180	0xa8b9	-0.0369
181	0x206e	0.00865
182	0xacdc	-0.0759
183	0x31f6	0.1863
184	0xb112	-0.1584
185	0xb12c	-0.1616
186	0xb0a3	-0.1449
187	0x2a23	0.04794
188	0xae52	-0.09875
189	0xb430	-0.2617
190	0xa437	-0.01646
191	0xa3e1	-0.01539
192	0xa441	-0.01662
193	0x2f05	0.1097
194	0xa83e	-0.03314
195	0xa565	-0.02107
196	0x2bd9	0.0613
197	0x2e6d	0.1004
198	0xb31f	-0.2225
199	0x3097	0.1434
200	0xb15b	-0.1674
201	0x3414	0.255
202	0x3130	0.1621
203	0xb3be	-0.242
204	0xb29d	-0.2067
205	0xab22	-0.05573
206	0x1d2f	0.005062
207	0xa933	-0.04062
208	0xb014	-0.1274
209	0x316c	0.1694
210	0x2f7f	0.1171
211	0xb16b	-0.1693
212	0xac4e	-0.06726
213	0xaec6	-0.10583
214	0xa325	-0.013954
215	0x3030	0.1309
216	0xb100	-0.1562
217	0x988e	-0.002224
218	0x2db6	0.08923
219	0x323d	0.195
220	0x2b91	0.0591
221	0xaa0b	-0.0472
222	0xb3f4	-0.2485
223	0x3075	0.1393
224	0xa5b0	-0.02222
225	0xb13a	-0.1633
226	0xb406	-0.2515
227	0xad5e	-0.08386
228	0x2de7	0.0922
229	0xa8f9	-0.03885
230	0xb207	-0.1884
231	0xaefa	-0.109
232	0x2ff2	0.12415
233	0x2dac	0.0886
234	0x22ae	0.01305
235	0xb05b	-0.1361
236	0x2f4a	0.1139
237	0xac9d	-0.0721
238	0x31ca	0.1809
239	0x2523	0.02007
240	0x2912	0.0396
241	0x3175	0.1705
242	0xb15f	-0.1678
243	0x287a	0.03497
244	0x2947	0.04123
245	0x2d9c	0.08765
246	0xaf8a	-0.1178
247	0xb181	-0.172
248	0xaf91	-0.1182
249	0x26bd	0.02632
250	0x326c	0.2007
251	0x2fdf	0.123
252	0x29f7	0.0466
253	0xa83d	-0.0331
254	0xb03e	-0.1326
255	0xaf51	-0.1143

body.0.bias f2 [24]
0	0xb0a6	-0.1453
1	0xb5d2	-0.3638
2	0xaba6	-0.05975
3	0x9fb7	-0.007534
4	0xb01a	-0.1282
5	0xac18	-0.06396
6	0xa9b1	-0.04446
7	0xa81f	-0.0322
8	0xb013	-0.1273
9	0xb074	-0.1392
10	0x1d7a	0.00535
11	0xb01b	-0.1283
12	0xb73c	-0.4521
13	0x9a68	-0.003128
14	0xaab1	-0.05228
15	0xac8a	-0.0709
16	0xaa33	-0.04843
17	0xacbe	-0.0741
18	0xaf08	-0.10986
19	0xb28f	-0.205
20	0xa550	-0.02075
21	0xb1dd	-0.1832
22	0x2c1a	0.0641
23	0xac37	-0.06586

body.1.weight f2 [24]
0	0x30b2	0.1467
1	0x238f	0.01476
2	0x3464	0.2744
3	0x2c3a	0.06604
4	0x329f	0.2069
5	0x9daf	-0.00555
6	0x3113	0.1586
7	0xa37b	-0.01461
8	0x2cfb	0.0778
9	0x31d3	0.182
10	0x9d62	-0.005257
11	0x3318	0.2217
12	0x9526	-0.001257
13	0x2e3d	0.0975
14	0x1b92	0.003696
15	0xa30f	-0.01379
16	0x3424	0.2588
17	0x35ca	0.3618
18	0x2f9b	0.11884
19	0x1710	0.001724
20	0x16a2	0.001619
21	0x1bff	0.003904
22	0x25f7	0.0233
23	0x300b	0.1263

body.2.weight f2 [24, 24, 3, 3]
0	0xa828	-0.03247
1	0xac77	-0.06976
2	0xb894	-0.5723
3	0x2c22	0.0646
4	0xb407	-0.2517
5	0xb5d7	-0.365
6	0xb15c	-0.1675
7	0xb3a9	-0.2394
8	0xb572	-0.3403
9	0xaa75	-0.05045
10	0xa06d	-0.008644
11	0xae78	-0.1011
12	0x3162	0.1682
13	0xb78f	-0.4724
14	0xb210	-0.1895
15	0xb642	-0.391
16	0xacc5	-0.0745
17	0x31e3	0.184
18	0x240e	0.01584
19	0xab5d	-0.05753
20	0xac5c	-0.0681
21	0xa8cd	-0.0375
22	0x3022	0.1292
23	0xac62	-0.0685
24	0xaf65	-0.11554
25	0xb0ea	-0.1536
26	0xac1c	-0.0642
27	0x2c89	0.07086
28	0x2db5	0.0892
29	0x149a	0.001123
30	0x2dca	0.09045
31	0x2c94	0.07153
32	0x2c2f	0.06537
33	0xa2e7	-0.01348
34	0x30fe	0.156
35	0xa94f	-0.04147
36	0x3157	0.1669
37	0x2ea0	0.1035
38	0xac05	-0.0628
39	0xa779	-0.02919
40	0xaa3c	-0.0487
41	0xb04a	-0.134
42	0xb489	-0.2834
43	0xb465	-0.2747
44	0x26d0	0.02661
45	0x31e7	0.1844
46	0x2c2a	0.06506
47	0xb844	-0.533
48	0xb2c8	-0.2119
49	0xb074	-0.1392
50	0xb256	-0.198
51	0x2ca9	0.0728
52	0xb099	-0.1437
53	0xa8c3	-0.0372
54	0xadcc	-0.0906
55	0x3297	0.2059
56	0x353d	0.3274
57	0x2d05	0.0784
58	0x3201	0.1876
59	0x30b6	0.1472
60	0xb1f7	-0.1864
61	0xb50c	-0.3154
62	0xaf41	-0.11334
63	0xb513	-0.3171
64	0x2cf4	0.0774
65	0x2c19	0.064
66	0x2c77	0.06976
67	0x9fe9	-0.007725
68	0xb091	-0.1427
69	0xac03	-0.0627
70	0xb4f4	-0.3096
71	0xb13a	-0.1633
72	0xb1aa	-0.177
73	0x306d	0.1383
74	0x1de9	0.00577
75	0x2dac	0.0886
76	0xaab6	-0.05243
77	0x2853	0.03378
78	0xae42	-0.0978
79	0xac9f	-0.0722
80	0x275f	0.0288
81	0x2f9b	0.11884
82	0xacf8	-0.07764
83	0x2d7e	0.0858
84	0xb084	-0.1411
85	0xac3d	-0.0662
86	0x2cd7	0.0756
87	0xabcd	-0.06094
88	0xaced	-0.07697
89	0xb05b	-0.1361
90	0x340d	0.2532
91	0xac04	-0.06274
92	0xab16	-0.05536
93	0xa9c8	-0.04517
94	0x2c10	0.0635
95	0x221d	0.01194
96	0x3417	0.2556
97	0xb1b7	-0.1786
98	0xb0e1	-0.1525
99	0xb0a0	-0.1445
100	0x2fc0	0.1211
101	0x333c	0.2261
102	0xaa21	-0.04788
103	0xb073	-0.139
104	0x2cc4	0.07446
105	0xadc7	-0.0903
106	0xa7a7	-0.02989
107	0x9e0b	-0.0059
108	0x2de8	0.0923
109	0x31db	0.183
110	0xb3f3	-0.2484
111	0x2deb	0.09247
112	0xab56	-0.0573
113	0xa7a0	-0.02979
114	0x30d9	0.1515
115	0xb72b	-0.448
116	0xacbe	-0.0741
117	0x2c10	0.0635
118	0x2ecc	0.1062
119	0xb1e5	-0.1842
120	0x2d42	0.08215
121	0x2c15	0.0638
122	0xaa56	-0.0495
123	0xa3a7	-0.014946
124	0xaec7	-0.1059
125	0x9740	-0.00177
126	0x328c	0.2046
127	0x2c33	0.0656
128	0xac7f	-0.07025
129	0x2f14	0.1106
130	0x2d0d	0.0789
131	0xb45e	-0.273
132	0x2a9c	0.05164
133	0x26ff	0.02733
134	0xb57e	-0.3433
135	0xac17	-0.0639
136	0x308d	0.1422
137	0x2fcd	0.1219
138	0x2df7	0.0932
139	0xafa7	-0.11957
140	0xad17	-0.0795
141	0x32ea	0.2161
142	0xb507	-0.3142
143	0xa99d	-0.04385
144	0xa9c2	-0.04498
145	0xa5ec	-0.02313
146	0x31cb	0.181
147	0x23e6	0.01543
148	0xabe9	-0.0618
149	0xb2fe	-0.2185
150	0xaf31	-0.11237
151	0x29b7	0.04465
152	0x255b	0.02092
153	0x285c	0.03406
154	0xac24	-0.0647
155	0x3023	0.1293
156	0xaca5	-0.0726
157	0xad17	-0.0795
158	0x2656	0.02475
159	0xaf35	-0.1126
160	0x9c30	-0.00409
161	0x326e	0.2009
162	0x2cc8	0.0747
163	0x316d	0.1696
164	0x2bf5	0.06216
165	0x2fb5	0.1204
166	0x2a14	0.0475
167	0xac4f	-0.0673
168	0xaca5	-0.0726
169	0xb2d0	-0.2129
170	0xb661	-0.3987
171	0x3051	0.1349
172	0xb014	-0.1274
173	0x2e7d	0.1014
174	0xb847	-0.5347
175	0x2e19	0.0953
176	0xa6cf	-0.0266
177	0xb66a	-0.401
178	0x2866	0.03436
179	0x2c75	0.06964
180	0x2613	0.02373
181	0x2730	0.02808
182	0xab3f	-0.0566
183	0xa9b9	-0.0447
184	0x28b7	0.03683
185	0x31f0	0.1855
186	0x1dd5	0.005695
187	0x25d1	0.02272
188	0xb197	-0.1747
189	0x263e	0.02438
190	0x2e5f	0.09955
191	0xa69b	-0.0258
192	0xab7b	-0.05844
193	0x31f7	0.1864
194	0xac66	-0.0687
195	0xb03e	-0.1326
196	0xaa78	-0.05054
197	0xb4aa	-0.2915
198	0x2c40	0.0664
199	0x2dbf	0.0898
200	0xa4cd	-0.01875
201	0x2b0e	0.0551
202	0xa452	-0.01688
203	0xa7b9	-0.03017
204	0x2804	0.03137
205	0x2eae	0.1044
206	0xa603	-0.02348
207	0xb0c2	-0.1487
208	0xac7c	-0.07007
209	0x2a07	0.0471
210	0x2999	0.04373
211	0x2c37	0.06586
212	0x328a	0.2043
213	0xb04c	-0.1343
214	0xabb2	-0.06012
215	0x2d63	0.08417
216	0x2e30	0.0967
217	0x2488	0.0177
218	0x27c6	0.03036
219	0x1994	0.002724
220	0xa883	-0.03525
221	0xa2fe	-0.01366
222	0x28fa	0.03888
223	0x2a98	0.0515
224	0x2c9f	0.0722
225	0xaeaf	-0.10443
226	0xa40b	-0.0158
227	0xb02a	-0.1301
228	0x3305	0.2194
229	0xa96e	-0.04242
230	0xac69	-0.0689
231	0x2d4d	0.0828
232	0x281d	0.03214
233	0xa92b	-0.04037
234	0x3131	0.1622
235	0xb6a5	-0.4153
236	0x2e0e	0.0946
237	0xa8b5	-0.03677
238	0x32f4	0.2173
239	0xb164	-0.1685
240	0xab77	-0.05832
241	0xaad6	-0.0534
242	0x2ba6	0.05975
243	0xa7a5	-0.02986
244	0xaf27	-0.11176
245	0xa82c	-0.0326
246	0xaa3d	-0.04874
247	0x3204	0.188
248	0x2d5d	0.0838
249	0x22ec	0.01352
250	0xb04c	-0.1343
251	0x2830	0.0327
252	0xb41a	-0.2563
253	0x30c7	0.1493
254	0xb1b8	-0.1787
255	0x2bf0	0.062

body.2.bias f2 [24]
0	0xaa6c	-0.05017
1	0xa936	-0.0407
2	0xaca4	-0.0725
3	0x264d	0.02461
4	0xb0a7	-0.1454
5	0xa9d7	-0.04562
6	0x2237	0.01214
7	0xac36	-0.0658
8	0xae44	-0.0979
9	0x284b	0.03354
10	0x9da4	-0.00551
11	0xacdf	-0.0761
12	0xaf86	-0.11755
13	0x20da	0.009476
14	0xaf52	-0.1144
15	0x16bf	0.001647
16	0xabbe	-0.0605
17	0xadc1	-0.0899
18	0xa91c	-0.03992
19	0xa8e7	-0.0383
20	0xaf55	-0.11456
21	0xa176	-0.010666
22	0xae06	-0.0941
23	0x2542	0.02054

body.3.weight f2 [24]
0	0x22af	0.013054
1	0x2c2e	0.0653
2	0x2c88	0.0708
3	0x2945	0.04117
4	0x1f36	0.007042
5	0xa0f4	-0.009674
6	0x2eb2	0.1046
7	0x309a	0.1438
8	0x2b53	0.05722
9	0x3204	0.188
10	0x2cc9	0.07477
11	0x2ed4	0.1067
12	0x2538	0.02039
13	0x254d	0.0207
14	0x2bbb	0.0604
15	0x25c2	0.02249
16	0x9061	-0.0005345
17	0x2dc9	0.0904
18	0x2c8c	0.07104
19	0x2db9	0.0894
20	0x2f3b	0.113
21	0x3575	0.341
22	0x2d5c	0.08374
23	0x31a1	0.1759

body.4.weight f2 [24, 24, 3, 3]
0	0xb1c9	-0.1808
1	0xb50c	-0.3154
2	0xb8a0	-0.578
3	0x3076	0.1394
4	0x2d98	0.0874
5	0xa90e	-0.0395
6	0x2842	0.03326
7	0xb02e	-0.1306
8	0x2d69	0.08453
9	0xada8	-0.0884
10	0x2718	0.02771
11	0xb66d	-0.4016
12	0x27e1	0.03078
13	0xa244	-0.01224
14	0xac95	-0.0716
15	0xb0b1	-0.1466
16	0x2ce2	0.0763
17	0xacb5	-0.07355
18	0x2ca0	0.07227
19	0x2490	0.01782
20	0xa3e2	-0.015396
21	0x1968	0.00264
22	0x3222	0.1917
23	0x2661	0.02492
24	0x31b5	0.1783
25	0x339a	0.2375
26	0xb954	-0.666
27	0xaff2	-0.12415
28	0xaa7d	-0.0507
29	0x3344	0.227
30	0x246a	0.01724
31	0x2d45	0.08234
32	0x30b0	0.1465
33	0xa8cb	-0.03745
34	0xa64c	-0.0246
35	0xb09e	-0.1443
36	0xaf21	-0.1114
37	0xb31b	-0.222
38	0x3046	0.1335
39	0xaefb	-0.1091
40	0x2cbb	0.0739
41	0xb110	-0.1582
42	0xaea4	-0.10376
43	0x2ae3	0.0538
44	0x28c3	0.0372
45	0xb26f	-0.201
46	0xb42b	-0.2605
47	0xae9e	-0.1034
48	0x2ff5	0.1243
49	0x27d6	0.03061
50	0x2586	0.02158
51	0xaf21	-0.1114
52	0x27ab	0.02995
53	0x2f18	0.11084
54	0x2fec	0.1238
55	0x3381	0.2345
56	0x2259	0.0124
57	0xa8b2	-0.03668
58	0x217c	0.01071
59	0xa30d	-0.01377
60	0x301a	0.1282
61	0xaf67	-0.11566
62	0x2942	0.04108
63	0x24fa	0.01944
64	0xaa48	-0.04907
65	0xae4b	-0.0983
66	0x3319	0.2218
67	0x30a8	0.1455
68	0x280a	0.03156
69	0x2d9a	0.0875
70	0xafa1	-0.1192
71	0xacaf	-0.0732
72	0xae42	-0.0978
73	0x2d1e	0.07996
74	0xb1f4	-0.186
75	0x317a	0.1711
76	0xac2d	-0.06525
77	0x2d66	0.08435
78	0x2f49	0.11383
79	0x2e35	0.097
80	0xad5a	-0.0836
81	0x2f13	0.11053
82	0x300f	0.1268
83	0xb2f4	-0.2173
84	0xa9ad	-0.04434
85	0xacc6	-0.0746
86	0xaf40	-0.1133
87	0xaaf2	-0.05426
88	0x154e	0.001295
89	0xaf26	-0.1117
90	0xa886	-0.03534
91	0x2d07	0.07855
92	0xaa67	-0.05002
93	0xa913	-0.03964
94	0xb1ab	-0.1771
95	0x2f2c	0.11206
96	0x2e32	0.0968
97	0x2cf1	0.0772
98	0x2c39	0.066
99	0x3229	0.1925
100	0x30c9	0.1495
101	0x3216	0.1902
102	0xac0e	-0.06335
103	0xb342	-0.2268
104	0xb24b	-0.1967
105	0x2314	0.013824
106	0xaaf8	-0.05444
107	0x3112	0.1584
108	0x3251	0.1974
109	0xae63	-0.0998
110	0x33b1	0.2404
111	0x2996	0.04364
112	0x1d3b	0.005108
113	0x2eb7	0.1049
114	0x2eaf	0.10443
115	0x28e1	0.03812
116	0xa525	-0.0201
117	0x2a42	0.0489
118	0x3085	0.1412
119	0x2491	0.01784
120	0x2e05	0.09406
121	0xad5c	-0.08374
122	0x2f45	0.1136
123	0x3510	0.3164
124	0x2a51	0.04935
125	0xb0cf	-0.1503
126	0x2cae	0.0731
127	0xae4c	-0.0984
128	0xae2e	-0.09656
129	0x2b2c	0.05603
130	0xa52e	-0.02023
131	0xb089	-0.1417
132	0xaa48	-0.04907
133	0x3054	0.1353
134	0x2ed3	0.1066
135	0x33de	0.2458
136	0xaedf	-0.10736
137	0xb440	-0.2656
138	0x99fd	-0.002924
139	0xab48	-0.0569
140	0x24ce	0.01877
141	0x2b74	0.05823
142	0x3429	0.26
143	0x2f1a	0.11096
144	0xb28a	-0.2043
145	0x34b5	0.2942
146	0xb050	-0.1348
147	0xae3c	-0.0974
148	0xadb9	-0.0894
149	0xb5e5	-0.3684
150	0x329b	0.2064
151	0xa491	-0.01784
152	0x32fa	0.218
153	0xb3a4	-0.2388
154	0xb07d	-0.1403
155	0xaf16	-0.1107
156	0x24f1	0.0193
157	0xa807	-0.03146
158	0xa1ce	-0.01134
159	0xaa97	-0.05148
160	0x20ee	0.00963
161	0xb0fe	-0.156
162	0xa6ae	-0.0261
163	0x2e14	0.095
164	0x3456	0.271
165	0xb043	-0.1332
166	0xb08f	-0.1425
167	0xb4a1	-0.2893
168	0x2ddc	0.09155
169	0xb138	-0.1631
170	0xa416	-0.01596
171	0xa898	-0.0359
172	0x1e32	0.00605
173	0xb194	-0.1743
174	0xb1c2	-0.1799
175	0xa9f4	-0.0465
176	0x2f82	0.1173
177	0x2d53	0.0832
178	0x3119	0.1593
179	0xb3e2	-0.2463
180	0x3191	0.174
181	0xa8a5	-0.0363
182	0x335f	0.2303
183	0xb1e6	-0.1843
184	0xac3a	-0.06604
185	0xa732	-0.0281
186	0x1b07	0.003431
187	0xad86	-0.0863
188	0xb59d	-0.3508
189	0x2732	0.0281
190	0xae6a	-0.1002
191	0x309b	0.1439
192	0x2f1c	0.1111
193	0xa931	-0.04056
194	0xac09	-0.06305
195	0x2ca1	0.0723
196	0x3088	0.1416
197	0x29eb	0.04623
198	0xac93	-0.0715
199	0xab8a	-0.0589
200	0x3478	0.2793
201	0x34fa	0.311
202	0x2fbb	0.1208
203	0x2c40	0.0664
204	0x2570	0.02124
205	0x306c	0.1382
206	0x30ad	0.1461
207	0xaf50	-0.11426
208	0xad06	-0.0785
209	0x2bc0	0.06055
210	0x1de4	0.005753
211	0x300d	0.1266
212	0xaa2a	-0.04816
213	0x2ae4	0.05383
214	0x1faa	0.007484
215	0xa9b2	-0.0445
216	0xb3d6	-0.2449
217	0xae1c	-0.09546
218	0xa76a	-0.02896
219	0xae33	-0.09686
220	0xacea	-0.0768
221	0x2e62	0.09973
222	0x2cb6	0.0736
223	0xb232	-0.1936
224	0xa8e5	-0.03824
225	0x2d00	0.0781
226	0x2a6f	0.05026
227	0xa779	-0.02919
228	0x2ecc	0.1062
229	0x2dc0	0.08984
230	0x29de	0.04584
231	0x9c74	-0.00435
232	0xac79	-0.0699
233	0xae9f	-0.10345
234	0xb8c7	-0.597
235	0x28f7	0.0388
236	0xae31	-0.09674
237	0x9d12	-0.00495
238	0x304c	0.1343
239	0x28e1	0.03812
240	0x2910	0.03955
241	0x3114	0.1587
242	0x2580	0.02148
243	0x2968	0.04224
244	0x31d9	0.1827
245	0x1e46	0.006126
246	0x2696	0.02573
247	0x2cc9	0.07477
248	0x2ca8	0.07275
249	0x2705	0.02742
250	0xaaad	-0.05215
251	0xa91a	-0.03986
252	0xb1ff	-0.1874
253	0xb2b4	-0.2095
254	0x2a20	0.04785
255	0x3013	0.1273

body.4.bias f2 [24]
0	0xa54a	-0.02066
1	0xa5db	-0.02287
2	0xa985	-0.04312
3	0x2581	0.0215
4	0x1587	0.001349
5	0xa91d	-0.03995
6	0xa11a	-0.009964
7	0x2cc4	0.07446
8	0xad92	-0.08704
9	0x1c41	0.004154
10	0x2c7f	0.07025
11	0x18c5	0.002329
12	0x133d	0.0008836
13	0x2c16	0.06384
14	0x13a5	0.000933
15	0xa2e1	-0.013435
16	0xa695	-0.02571
17	0x2bd2	0.0611
18	0xa2f4	-0.01358
19	0x27d3	0.03056
20	0xaa2c	-0.04822
21	0x1d77	0.005337
22	0x24c4	0.01862
23	0x2848	0.03345

body.5.weight f2 [24]
0	0x2c03	0.0627
1	0x2a95	0.05142
2	0x308d	0.1422
3	0xaac1	-0.05276
4	0x30a9	0.1456
5	0x27a0	0.02979
6	0x28f4	0.0387
7	0x2d2c	0.0808
8	0x329f	0.2069
9	0x34d4	0.3018
10	0x2d3b	0.0817
11	0x228b	0.01278
12	0x2c1e	0.06433
13	0x3027	0.1298
14	0x2da0	0.0879
15	0xa968	-0.04224
16	0x32f0	0.2168
17	0x314f	0.1659
18	0xa599	-0.02187
19	0x2bbd	0.06046
20	0x31ca	0.1809
21	0x25d2	0.02274
22	0x28be	0.03705
23	0x30ec	0.1538

body.6.weight f2 [24, 24, 3, 3]
0	0xae62	-0.09973
1	0x323c	0.1948
2	0xb0ec	-0.1538
3	0xb2d3	-0.2133
4	0xacb3	-0.0734
5	0x29ee	0.04633
6	0xad82	-0.08606
7	0xa2be	-0.01317
8	0x3327	0.2235
9	0xb308	-0.2197
10	0xb1b4	-0.1782
11	0xb1d4	-0.1821
12	0x2dc1	0.0899
13	0x1e35	0.00606
14	0xadf3	-0.09296
15	0x3218	0.1904
16	0x2963	0.04208
17	0x2995	0.0436
18	0x341e	0.2573
19	0xb482	-0.2817
20	0x2ce9	0.0767
21	0xa4e3	-0.01909
22	0xb0a8	-0.1455
23	0x2ff4	0.12427
24	0xad81	-0.086
25	0x2c51	0.06744
26	0xb45f	-0.2732
27	0x291e	0.03998
28	0x2e96	0.1029
29	0xb44f	-0.2693
30	0xa42f	-0.01634
31	0xac96	-0.07166
32	0xad1e	-0.07996
33	0xb1fb	-0.1869
34	0xb60c	-0.378
35	0xa49d	-0.01802
36	0x340f	0.2537
37	0xb084	-0.1411
38	0xa908	-0.0393
39	0x2971	0.0425
40	0x2de5	0.0921
41	0xac8a	-0.0709
42	0x2ffe	0.1249
43	0x2961	0.04202
44	0xacb7	-0.07367
45	0xb292	-0.2053
46	0xb107	-0.1571
47	0xb510	-0.3164
48	0xa94e	-0.04144
49	0xb740	-0.4531
50	0xa90e	-0.0395
51	0x2d55	0.0833
52	0x3213	0.1898
53	0xb1c9	-0.1808
54	0x32a6	0.2078
55	0x2f20	0.1113
56	0xb1b7	-0.1786
57	0x33ae	0.24
58	0x26a2	0.02591
59	0x2e2d	0.0965
60	0xad4b	-0.0827
61	0xb2ab	-0.2084
62	0x1e7f	0.006344
63	0xb16b	-0.1693
64	0x321c	0.1909
65	0xaede	-0.1073
66	0x2dfa	0.0934
67	0x285b	0.03403
68	0xad1c	-0.07983
69	0xad97	-0.08734
70	0xa82e	-0.03265
71	0xb404	-0.251
72	0x2b71	0.05814
73	0xb39e	-0.238
74	0xb147	-0.1649
75	0x27fa	0.03116
76	0x2c13	0.06366
77	0x2d71	0.085
78	0xa5aa	-0.02213
79	0xaefa	-0.109
80	0x2e73	0.10077
81	0xad87	-0.08636
82	0xa9a5	-0.0441
83	0x2e66	0.1
84	0x3066	0.1375
85	0xac54	-0.0676
86	0xae39	-0.0972
87	0x2f12	0.1105
88	0xae23	-0.0959
89	0x93b3	-0.00094
90	0x2b28	0.0559
91	0xa973	-0.04257
92	0xb45b	-0.2722
93	0x9c6e	-0.004326
94	0xac45	-0.0667
95	0x2cc6	0.0746
96	0xb174	-0.1704
97	0xaf7c	-0.11694
98	0x3198	0.1748
99	0x2c6c	0.0691
100	0xb51f	-0.32
101	0xb849	-0.5356
102	0xac57	-0.0678
103	0xb5e9	-0.3694
104	0x28d6	0.03778
105	0x2605	0.02351
106	0x2815	0.0319
107	0xa579	-0.02138
108	0xb2a9	-0.2081
109	0x2661	0.02492
110	0xb527	-0.322
111	0x2c7a	0.06995
112	0x21c1	0.01124
113	0xac14	-0.0637
114	0x2f04	0.1096
115	0xac9b	-0.07196
116	0x365c	0.3975
117	0xb12b	-0.1615
118	0xb45b	-0.2722
119	0x347f	0.281
120	0xb2c9	-0.212
121	0x24ae	0.01828
122	0x2a9e	0.0517
123	0xa579	-0.02138
124	0x2c4d	0.0672
125	0x25cd	0.02266
126	0x2fcc	0.1218
127	0x9ee8	-0.006744
128	0xa129	-0.01008
129	0xb03d	-0.1324
130	0xa319	-0.01386
131	0xb25e	-0.199
132	0xac73	-0.0695
133	0xafca	-0.1217
134	0x324b	0.1967
135	0xb1ef	-0.1854
136	0x21fc	0.01169
137	0xb2a4	-0.2075
138	0xb3df	-0.246
139	0x290d	0.03946
140	0xb1b7	-0.1786
141	0x323e	0.1951
142	0x29cb	0.04526
143	0xabeb	-0.06186
144	0xace2	-0.0763
145	0xadb9	-0.0894
146	0x1898	0.002243
147	0xac75	-0.06964
148	0x2036	0.008224
149	0xb16a	-0.1692
150	0xa899	-0.03592
151	0xb06d	-0.1383
152	0x9d5a	-0.005226
153	0xb0d6	-0.1511
154	0x857f	-8.386e-05
155	0xb50e	-0.316
156	0xa902	-0.03912
157	0xac48	-0.0669
158	0x3515	0.3176
159	0x2b07	0.0549
160	0x3235	0.194
161	0xaa61	-0.04984
162	0xb3fd	-0.2496
163	0x385e	0.546
164	0x320d	0.1891
165	0xa99c	-0.04382
166	0x2d09	0.0787
167	0x320e	0.1892
168	0x3363	0.2308
169	0xb0d3	-0.1508
170	0x3273	0.2015
171	0x2fa2	0.11926
172	0x2b67	0.05783
173	0xae71	-0.10065
174	0xa1a7	-0.01104
175	0xb25c	-0.1987
176	0xae8e	-0.1024
177	0xb00b	-0.1263
178	0xae63	-0.0998
179	0x2cd1	0.07526
180	0xb204	-0.188
181	0xabfd	-0.0624
182	0xaaf5	-0.05435
183	0x3228	0.1924
184	0x2eb0	0.1045
185	0xa9db	-0.04575
186	0x2cda	0.0758
187	0xb844	-0.533
188	0x2e37	0.0971
189	0x301d	0.1285
190	0x25d4	0.02277
191	0xa70a	-0.0275
192	0x307d	0.1403
193	0x1f57	0.007168
194	0x3122	0.1604
195	0xaf00	-0.1094
196	0xb3bd	-0.2418
197	0x30ed	0.1539
198	0x9d9c	-0.005478
199	0x9d46	-0.00515
200	0x2fc0	0.1211
201	0x34b7	0.2947
202	0x9435	-0.001027
203	0x2c9b	0.07196
204	0xbad8	-0.8555
205	0xab66	-0.0578
206	0x2e56	0.099
207	0x2998	0.0437
208	0xa782	-0.02933
209	0xb07f	-0.1405
210	0xaf42	-0.1134
211	0xa832	-0.03278
212	0xb1bb	-0.1791
213	0x2ba4	0.0597
214	0x30a1	0.1447
215	0xaab7	-0.05246
216	0x3009	0.1261
217	0x30b5	0.1471
218	0xb53b	-0.327
219	0x2d55	0.0833
220	0xad63	-0.08417
221	0xb5bb	-0.3582
222	0xb230	-0.1934
223	0xb1ce	-0.1814
224	0xb954	-0.666
225	0x346e	0.2769
226	0x30bb	0.1478
227	0xa843	-0.0333
228	0xaa74	-0.0504
229	0x3190	0.1738
230	0x259e	0.02194
231	0xae68	-0.1001
232	0xb326	-0.2234
233	0xb0ec	-0.1538
234	0xa758	-0.02869
235	0x2dfb	0.09344
236	0xadff	-0.0937
237	0x3087	0.1415
238	0x290d	0.03946
239	0xaf80	-0.1172
240	0xb1b7	-0.1786
241	0xb273	-0.2015
242	0xb483	-0.282
243	0x2ee1	0.1075
244	0xb1a0	-0.1758
245	0x2e91	0.1026
246	0x2bd1	0.06107
247	0x2ee9	0.108
248	0xa402	-0.01566
249	0x2fad	0.11993
250	0x3152	0.1663
251	0x3430	0.2617
252	0x2eee	0.1083
253	0x19e0	0.002869
254	0x228d	0.012794
255	0xab03	-0.05478

body.6.bias f2 [24]
0	0x2cb9	0.0738
1	0x2cbe	0.0741
2	0xa844	-0.03333
3	0x2b00	0.0547
4	0x2a80	0.05078
5	0xac1a	-0.0641
6	0xa8c1	-0.03714
7	0x2c0e	0.06335
8	0xa73e	-0.02829
9	0xa6e3	-0.0269
10	0xaac8	-0.05298
11	0xac42	-0.0665
12	0xa89e	-0.03607
13	0xa5aa	-0.02213
14	0xa8bd	-0.03702
15	0x2dcd	0.09064
16	0xa9f9	-0.04666
17	0x2cca	0.0748
18	0xa939	-0.0408
19	0xaa2a	-0.04816
20	0xa884	-0.03528
21	0x233a	0.014114
22	0x9d88	-0.0054
23	0xa646	-0.0245

body.7.weight f2 [24]
0	0x2e1e	0.0956
1	0x27b1	0.03004
2	0x1233	0.0007567
3	0x2ca2	0.0724
4	0x2916	0.03973
5	0x1d63	0.00526
6	0x2c35	0.06573
7	0x2b1f	0.05563
8	0xa441	-0.01662
9	0x2d01	0.0782
10	0xa481	-0.0176
11	0x3327	0.2235
12	0x3300	0.2188
13	0x2bbb	0.0604
14	0x2864	0.0343
15	0x2c36	0.0658
16	0x30e5	0.153
17	0x311f	0.16
18	0x275d	0.02876
19	0x2a05	0.04703
20	0x322b	0.1927
21	0x2b05	0.05484
22	0x323e	0.1951
23	0x2cc6	0.0746

body.8.weight f2 [24, 24, 3, 3]
0	0xaed6	-0.1068
1	0xb418	-0.2559
2	0xb048	-0.1338
3	0x283d	0.0331
4	0x216d	0.0106
5	0x299d	0.04385
6	0x2d19	0.07965
7	0x2db1	0.0889
8	0xae32	-0.0968
9	0xa642	-0.02444
10	0x2a7f	0.05075
11	0xa418	-0.01599
12	0x3109	0.1573
13	0x282c	0.0326
14	0x2f4b	0.11395
15	0xa9da	-0.04572
16	0xb332	-0.2249
17	0xb458	-0.2715
18	0xa922	-0.0401
19	0x1c11	0.00397
20	0xb065	-0.1373
21	0xae76	-0.10095
22	0xacfd	-0.07794
23	0xadab	-0.08856
24	0xa9c9	-0.0452
25	0x2d1d	0.0799
26	0xae47	-0.0981
27	0xaafe	-0.05463
28	0xad07	-0.07855
29	0x2ccb	0.0749
30	0xa5ac	-0.02216
31	0x24e9	0.01918
32	0xaa7b	-0.05063
33	0xac7e	-0.0702
34	0xa9b4	-0.04456
35	0x2c29	0.065
36	0xaa45	-0.04898
37	0xae1a	-0.09534
38	0x2f9f	0.1191
39	0xa721	-0.02785
40	0x2a49	0.0491
41	0xab82	-0.05865
42	0xb097	-0.1434
43	0x23b8	0.015076
44	0xaa24	-0.04797
45	0xb1ed	-0.1852
46	0x2cae	0.0731
47	0xb0fa	-0.1555
48	0x31ca	0.1809
49	0xb0f2	-0.1545
50	0x253c	0.02045
51	0x2c9a	0.0719
52	0x2912	0.0396
53	0xa5b8	-0.02234
54	0xa41f	-0.0161
55	0xafe7	-0.1235
56	0xb16e	-0.1697
57	0xac25	-0.06476
58	0x333a	0.2258
59	0xb0aa	-0.1458
60	0xa81f	-0.0322
61	0x26aa	0.02603
62	0xb445	-0.2668
63	0x2f6a	0.11584
64	0xac5f	-0.0683
65	0xa998	-0.0437
66	0x3045	0.1334
67	0x2ad7	0.05344
68	0xb29e	-0.2068
69	0x29f6	0.04657
70	0x2cb9	0.0738
71	0xaa82	-0.05084
72	0x25ae	0.02219
73	0xad8e	-0.0868
74	0xa451	-0.01686
75	0x310a	0.1575
76	0x3158	0.167
77	0x2ab1	0.05228
78	0xae8e	-0.1024
79	0xb108	-0.1572
80	0xa216	-0.01189
81	0xadba	-0.0895
82	0xb3db	-0.2455
83	0x2e93	0.1027
84	0x2d73	0.08514
85	0x35cc	0.3623
86	0x183f	0.002073
87	0x2917	0.03976
88	0xac84	-0.07056
89	0x2dfc	0.0935
90	0xb2d3	-0.2133
91	0xae4e	-0.0985
92	0xac42	-0.0665
93	0xb002	-0.1252
94	0x2df2	0.0929
95	0x2c1f	0.0644
96	0x2fd2	0.1222
97	0x2eff	0.1093
98	0x30d6	0.1511
99	0xaad7	-0.05344
100	0x3427	0.2595
101	0x9fb5	-0.007526
102	0xb277	-0.202
103	0x2eba	0.1051
104	0xaa77	-0.0505
105	0xb41e	-0.2573
106	0xa191	-0.01087
107	0x31ee	0.1853
108	0xa7cb	-0.03044
109	0xb48a	-0.2837
110	0x30ee	0.154
111	0xb07c	-0.1401
112	0x1d50	0.005188
113	0xb42b	-0.2605
114	0xb149	-0.1652
115	0x3407	0.2517
116	0x9de4	-0.005753
117	0x2b69	0.0579
118	0x2c0c	0.06323
119	0xa69d	-0.02583
120	0xb3ba	-0.2415
121	0x2e5b	0.0993
122	0xb569	-0.3381
123	0x2b15	0.05533
124	0x34b1	0.2932
125	0xae76	-0.10095
126	0x2b7d	0.0585
127	0x2ef6	0.10876
128	0xb05c	-0.1362
129	0xa94f	-0.04147
130	0x269a	0.02579
131	0xadf2	-0.0929
132	0x2d85	0.08624
133	0x2583	0.02153
134	0xac40	-0.0664
135	0x313a	0.1633
136	0xb44c	-0.2686
137	0xa433	-0.0164
138	0xae93	-0.1027
139	0x31ad	0.1774
140	0x2eb4	0.10474
141	0xafe2	-0.12317
142	0x258f	0.02171
143	0x2b8e	0.05902
144	0xabf9	-0.0623
145	0x305f	0.1366
146	0x2aef	0.05417
147	0xaff4	-0.12427
148	0x2bb2	0.06012
149	0xb14f	-0.1659
150	0xa072	-0.00868
151	0x2dc7	0.0903
152	0x2c83	0.0705
153	0x2d6f	0.0849
154	0xa052	-0.00844
155	0xa9ed	-0.0463
156	0xaa7c	-0.05066
157	0x3709	0.4397
158	0xa46b	-0.01726
159	0x27b2	0.03006
160	0xad61	-0.08405
161	0xb337	-0.2255
162	0x3115	0.1588
163	0x2ee5	0.1077
164	0xada7	-0.0883
165	0x281c	0.0321
166	0xadda	-0.09143
167	0xa9bb	-0.04477
168	0xae70	-0.1006
169	0x2eb5	0.1048
170	0xa0ac	-0.009125
171	0x3071	0.1388
172	0x32af	0.2089
173	0x2c31	0.0655
174	0xb298	-0.206
175	0xaccb	-0.0749
176	0x2823	0.03232
177	0xa39c	-0.01486
178	0xb088	-0.1416
179	0x302e	0.1306
180	0xade9	-0.09235
181	0xac14	-0.0637
182	0xac28	-0.06494
183	0x2f11	0.1104
184	0x2ef9	0.10895
185	0xaf05	-0.1097
186	0xa82d	-0.03262
187	0x94d9	-0.0011835
188	0xb1ee	-0.1853
189	0x2c9f	0.0722
190	0x2d4e	0.0829
191	0x3126	0.1609
192	0xb3a2	-0.2385
193	0x30d2	0.1506
194	0x303f	0.1327
195	0xb130	-0.1621
196	0x29bb	0.04477
197	0x2fc7	0.1215
198	0x217d	0.01072
199	0x2e47	0.0981
200	0x2c33	0.0656
201	0x3238	0.1943
202	0xb081	-0.1407
203	0xad9f	-0.0878
204	0xa9fc	-0.04675
205	0x300f	0.1268
206	0xa950	-0.0415
207	0x2cc0	0.0742
208	0xa2e0	-0.01343
209	0x30c3	0.1488
210	0x2c3a	0.06604
211	0xb43e	-0.2651
212	0xafbb	-0.1208
213	0xb0cf	-0.1503
214	0x18bd	0.002314
215	0x2c2a	0.06506
216	0x30dd	0.152
217	0xb360	-0.2305
218	0x358e	0.3472
219	0x27cf	0.0305
220	0xb379	-0.2335
221	0x3069	0.1378
222	0x271f	0.02782
223	0xa7b2	-0.03006
224	0x206f	0.00866
225	0x28c6	0.0373
226	0x2977	0.0427
227	0xaad7	-0.05344
228	0xaf98	-0.11865
229	0x2fc3	0.1213
230	0xa900	-0.03906
231	0x322f	0.1932
232	0x2f80	0.1172
233	0xb26e	-0.2009
234	0x0e8f	0.0004003
235	0xa587	-0.02159
236	0x33f8	0.249
237	0xad0c	-0.07886
238	0xa9f5	-0.04654
239	0x2f0c	0.1101
240	0x3167	0.1688
241	0x26a2	0.02591
242	0x2fed	0.12384
243	0x3128	0.1611
244	0xacbb	-0.0739
245	0xb1be	-0.1794
246	0x2697	0.02574
247	0x307c	0.1401
248	0xad18	-0.0796
249	0xa6cb	-0.02654
250	0x2791	0.02956
251	0x28d2	0.03766
252	0x2080	0.00879
253	0x3062	0.137
254	0x340a	0.2524
255	0xaa12	-0.04742

body.8.bias f2 [24]
0	0xac16	-0.06384
1	0xa5f1	-0.02321
2	0x18a8	0.002274
3	0xa398	-0.01483
4	0xac21	-0.0645
5	0x2cf5	0.07745
6	0x20b5	0.00919
7	0x2151	0.01038
8	0xa0cb	-0.00936
9	0xa445	-0.01668
10	0x2903	0.03915
11	0x2f10	0.11035
12	0xa901	-0.0391
13	0xa58f	-0.02171
14	0x2c3e	0.0663
15	0x2d3a	0.08167
16	0x2d6a	0.0846
17	0x2bae	0.06
18	0xb113	-0.1586
19	0xae28	-0.0962
20	0x2dfe	0.0936
21	0x2810	0.03174
22	0x235f	0.0144
23	0x2c2f	0.06537

body.9.weight f2 [24]
0	0x29ff	0.04684
1	0x2d98	0.0874
2	0xa536	-0.02036
3	0x3282	0.2034
4	0x9d3f	-0.005123
5	0x2d8b	0.0866
6	0x2eed	0.1082
7	0xa68b	-0.02556
8	0x335c	0.23
9	0x2e1a	0.09534
10	0x346e	0.2769
11	0x2b57	0.05734
12	0x25cf	0.02269
13	0x1461	0.001069
14	0x2f9d	0.11896
15	0xa12f	-0.010124
16	0x2e04	0.094
17	0x274d	0.02852
18	0x306e	0.1384
19	0x2de5	0.0921
20	0x3277	0.202
21	0x30cc	0.1499
22	0xaee0	-0.1074
23	0x31f0	0.1855

body.10.weight f2 [24, 24, 3, 3]
0	0x1823	0.00202
1	0xb5af	-0.3552
2	0x9c23	-0.00404
3	0xa93e	-0.04095
4	0xb6a5	-0.4153
5	0xa927	-0.04025
6	0xa54a	-0.02066
7	0xaca6	-0.07263
8	0xae64	-0.09985
9	0x2f5e	0.1151
10	0x9f45	-0.0071
11	0xb1ac	-0.1772
12	0x2ede	0.1073
13	0xaf00	-0.1094
14	0x30e7	0.1532
15	0xb55a	-0.3345
16	0x2d4d	0.0828
17	0xa7f4	-0.03107
18	0xb44b	-0.2683
19	0xa26c	-0.01254
20	0x2f35	0.1126
21	0x307c	0.1401
22	0xad2f	-0.081
23	0x30f2	0.1545
24	0x283f	0.03317
25	0x251b	0.01994
26	0x1c24	0.004044
27	0x1de5	0.005756
28	0xaba6	-0.05975
29	0x2cc6	0.0746
30	0x1cef	0.004818
31	0x303c	0.1323
32	0x31c7	0.1805
33	0x2e71	0.10065
34	0x27b7	0.03014
35	0xb3a6	-0.239
36	0xa572	-0.02127
37	0xa0a2	-0.00905
38	0xb0d6	-0.1511
39	0xb199	-0.1749
40	0xa3b4	-0.015045
41	0x3472	0.2778
42	0xab0d	-0.05508
43	0xa491	-0.01784
44	0xa4ee	-0.01926
45	0x311b	0.1595
46	0x29e5	0.04605
47	0x2f3c	0.11304
48	0x1672	0.001574
49	0xaaad	-0.05215
50	0xaa36	-0.04852
51	0x2e96	0.1029
52	0x27b3	0.03008
53	0x2072	0.00868
54	0xa3c6	-0.01518
55	0x2514	0.01984
56	0xb21b	-0.1908
57	0xb173	-0.1703
58	0xb028	-0.1299
59	0x326c	0.2007
60	0x2869	0.03445
61	0x3014	0.1274
62	0x2b55	0.05728
63	0xb5f7	-0.3728
64	0x23a8	0.01495
65	0x322b	0.1927
66	0x2f97	0.1186
67	0xb020	-0.1289
68	0xad07	-0.07855
69	0x2582	0.02151
70	0x2d39	0.0816
71	0x2464	0.01715
72	0xa86c	-0.03455
73	0xb240	-0.1953
74	0xacc3	-0.0744
75	0xaea6	-0.1039
76	0xa77a	-0.0292
77	0x2ea8	0.104
78	0x2236	0.01213
79	0xacb8	-0.0737
80	0x24a6	0.01816
81	0x2949	0.0413
82	0x3187	0.1727
83	0x2b46	0.05682
84	0xad39	-0.0816
85	0x2714	0.02765
86	0x299b	0.0438
87	0x343b	0.2644
88	0xa63c	-0.02435
89	0xb1a5	-0.1764
90	0xb006	-0.1257
91	0xb075	-0.1393
92	0x2da9	0.08844
93	0x2e15	0.09503
94	0x2955	0.04166
95	0x2cd3	0.0754
96	0x2f98	0.11865
97	0x29b9	0.0447
98	0x31ea	0.1848
99	0x2cac	0.073
100	0x2f47	0.1137
101	0x30a5	0.1451
102	0x1d71	0.005314
103	0x230c	0.01376
104	0x2af1	0.05423
105	0x2c47	0.06683
106	0xa45b	-0.01701
107	0x3179	0.171
108	0xaea5	-0.1038
109	0xafcd	-0.1219
110	0x317c	0.1714
111	0x295e	0.04193
112	0xb330	-0.2246
113	0xb72a	-0.4478
114	0xa88d	-0.03555
115	0x2c9f	0.0722
116	0xb456	-0.271
117	0xa868	-0.03442
118	0xb25d	-0.1989
119	0xb712	-0.442
120	0x2439	0.0165
121	0xab5b	-0.05746
122	0x2d87	0.08636
123	0xa48e	-0.01779
124	0x2cc8	0.0747
125	0x2bc9	0.06082
126	0xb1b4	-0.1782
127	0x2914	0.03967
128	0x3053	0.1351
129	0x24f1	0.0193
130	0x34ab	0.2917
131	0xac00	-0.0625
132	0x30f0	0.1543
133	0xa4a6	-0.01816
134	0xaf47	-0.1137
135	0xb139	-0.1632
136	0x2cdb	0.07587
137	0xacbd	-0.07404
138	0xaf30	-0.1123
139	0xafdf	-0.123
140	0xa89b	-0.03598
141	0xb467	-0.2751
142	0x302a	0.1301
143	0x2553	0.0208
144	0x2a24	0.04797
145	0x2af8	0.05444
146	0xb49d	-0.2883
147	0xa571	-0.02126
148	0xad23	-0.08026
149	0xade3	-0.092
150	0x2d9c	0.08765
151	0xab87	-0.0588
152	0xb328	-0.2236
153	0x2a52	0.04938
154	0xadb4	-0.0891
155	0x2ce6	0.07654
156	0x221b	0.011925
157	0xaea2	-0.10364
158	0x2c49	0.06696
159	0xb446	-0.267
160	0xb2cf	-0.2128
161	0xa1b2	-0.01112
162	0xb0c9	-0.1495
163	0xae13	-0.0949
164	0x3026	0.1296
165	0xb2db	-0.2142
166	0xb250	-0.1973
167	0xa0a9	-0.0091
168	0xb217	-0.1903
169	0xae48	-0.09814
170	0x2e97	0.10297
171	0xb301	-0.2189
172	0xb4c2	-0.2974
173	0xb103	-0.1566
174	0x2cbf	0.07416
175	0xa7a1	-0.0298
176	0xac8e	-0.07117
177	0x2e70	0.1006
178	0x251d	0.01997
179	0xb43a	-0.2642
180	0xb405	-0.2512
181	0xafa2	-0.11926
182	0x3494	0.2861
183	0x30c6	0.1492
184	0x2f95	0.11847
185	0x197d	0.00268
186	0x1c22	0.004036
187	0x32a0	0.207
188	0x2e28	0.0962
189	0xad75	-0.08527
190	0x2557	0.02086
191	0x324d	0.1969
192	0x2d8d	0.08673
193	0xada9	-0.08844
194	0xb112	-0.1584
195	0x2d23	0.08026
196	0x2c4b	0.0671
197	0xaaac	-0.05212
198	0x2c0a	0.0631
199	0x9906	-0.002453
200	0xb3e2	-0.2463
201	0x35ac	0.3545
202	0x32fa	0.218
203	0xadb8	-0.08936
204	0x2778	0.02917
205	0xa60e	-0.02365
206	0x2b17	0.0554
207	0xac5a	-0.068
208	0xa92c	-0.0404
209	0x25ca	0.02261
210	0x2fa2	0.11926
211	0xac19	-0.064
212	0xb14f	-0.1659
213	0x2ee3	0.1076
214	0xae22	-0.0958
215	0x2d9f	0.0878
216	0xaaa2	-0.05182
217	0x2c4d	0.0672
218	0x3038	0.1318
219	0x2bde	0.06146
220	0x25bf	0.02245
221	0xb38f	-0.2362
222	0xae9f	-0.10345
223	0xaa54	-0.04944
224	0xaed8	-0.10693
225	0xb401	-0.2502
226	0x2e8c	0.1023
227	0x3328	0.2236
228	0xa63d	-0.02437
229	0x331b	0.222
230	0xa800	-0.03125
231	0xaa74	-0.0504
232	0xace4	-0.0764
233	0x2134	0.01016
234	0xaece	-0.1063
235	0x2f40	0.1133
236	0x33d1	0.2443
237	0x3077	0.1395
238	0x29b2	0.0445
239	0x1a18	0.002975
240	0x2e6e	0.10046
241	0xb0ab	-0.1459
242	0x2b11	0.0552
243	0x296a	0.0423
244	0x255d	0.02095
245	0xb02e	-0.1306
246	0x2ec5	0.1058
247	0xaeac	-0.10425
248	0x2705	0.02742
249	0xaf87	-0.1176
250	0xb03d	-0.1324
251	0x2ffc	0.12476
252	0xb34f	-0.2284
253	0xb1ac	-0.1772
254	0xa86a	-0.0345
255	0xb25c	-0.1987

body.10.bias f2 [24]
0	0x2ca1	0.0723
1	0x1406	0.000982
2	0x1d93	0.005444
3	0xa306	-0.01372
4	0xae7b	-0.10126
5	0xad89	-0.0865
6	0xb222	-0.1917
7	0x2803	0.03134
8	0x303e	0.1326
9	0xac19	-0.064
10	0x3093	0.143
11	0xb0b7	-0.1473
12	0x2446	0.0167
13	0x3027	0.1298
14	0x26f2	0.02713
15	0xa657	-0.02477
16	0x284c	0.03357
17	0xa5c4	-0.02252
18	0x25cc	0.02264
19	0x2fbe	0.121
20	0xb0cf	-0.1503
21	0xab94	-0.0592
22	0x2c14	0.0637
23	0x2a89	0.05106

body.11.weight f2 [24]
0	0x2a18	0.0476
1	0x2478	0.01746
2	0x297f	0.04294
3	0x2f91	0.1182
4	0x2e28	0.0962
5	0x98e9	-0.002398
6	0xabe8	-0.06177
7	0x2c4b	0.0671
8	0x2c3b	0.0661
9	0x29ac	0.0443
10	0x3081	0.1407
11	0x2b24	0.0558
12	0x2e96	0.1029
13	0x323e	0.1951
14	0x26cf	0.0266
15	0x2c35	0.06573
16	0xa691	-0.02565
17	0x33bb	0.2416
18	0x2da5	0.0882
19	0xa7a1	-0.0298
20	0x1a78	0.003159
21	0xa762	-0.02884
22	0x2f1e	0.1112
23	0x2ddf	0.09174

body.12.weight f2 [24, 24, 3, 3]
0	0xa522	-0.02005
1	0xad75	-0.08527
2	0x1ea2	0.006477
3	0xaffa	-0.12463
4	0xb3dc	-0.2456
5	0xa64c	-0.0246
6	0xb046	-0.1335
7	0x329f	0.2069
8	0x3317	0.2216
9	0xb042	-0.133
10	0xb075	-0.1393
11	0x9a31	-0.003023
12	0xb273	-0.2015
13	0x2513	0.01982
14	0x22a3	0.01296
15	0xab9b	-0.05942
16	0x215b	0.01046
17	0x30ce	0.1501
18	0xad3d	-0.08185
19	0xb316	-0.2214
20	0xae78	-0.1011
21	0x30a9	0.1456
22	0x2a6d	0.0502
23	0x2062	0.00856
24	0xb386	-0.2351
25	0x307a	0.1399
26	0x2612	0.02371
27	0xa6a9	-0.02602
28	0x2fdd	0.12286
29	0xa7c0	-0.03027
30	0x2d35	0.08136
31	0x2edd	0.10724
32	0xb75e	-0.4604
33	0x9e27	-0.00601
34	0xad82	-0.08606
35	0x2e55	0.09894
36	0xb2be	-0.2107
37	0xb291	-0.2052
38	0xa52b	-0.02019
39	0x10c9	0.000584
40	0x2b26	0.05585
41	0xb3c2	-0.2424
42	0xae85	-0.10187
43	0x2e9f	0.10345
44	0x2e5d	0.0994
45	0x230a	0.01375
46	0xa665	-0.02498
47	0xad81	-0.086
48	0x2a8c	0.05115
49	0xabd6	-0.06122
50	0x9d14	-0.00496
51	0xadbe	-0.0897
52	0xa124	-0.01004
53	0x2742	0.02835
54	0xb41e	-0.2573
55	0x2da1	0.08795
56	0x22e0	0.01343
57	0xa0e7	-0.009575
58	0xae08	-0.09424
59	0xaff4	-0.12427
60	0xb196	-0.1746
61	0xb375	-0.233
62	0xb589	-0.346
63	0x2973	0.04257
64	0x2d28	0.08057
65	0x2d04	0.07837
66	0x2c5e	0.06824
67	0x2b5d	0.05753
68	0xb027	-0.1298
69	0x292d	0.04044
70	0x32ae	0.2087
71	0x262e	0.02414
72	0xaca0	-0.07227
73	0x27bb	0.0302
74	0x2188	0.0108
75	0xb111	-0.1583
76	0xb032	-0.1311
77	0xa836	-0.0329
78	0x29e2	0.04596
79	0x2904	0.03918
80	0x2fcd	0.1219
81	0x9d0a	-0.00492
82	0x2dfb	0.09344
83	0xa0e0	-0.00952
84	0x3015	0.1276
85	0xaf2e	-0.1122
86	0x26ad	0.02608
87	0xa995	-0.0436
88	0xb345	-0.2272
89	0xb010	-0.127
90	0xadb5	-0.0892
91	0xb233	-0.1937
92	0x2d44	0.0823
93	0xabb4	-0.06018
94	0x2f6f	0.11615
95	0xb157	-0.1669
96	0x3101	0.1564
97	0x2809	0.03152
98	0xaf42	-0.1134
99	0x2037	0.00823
100	0x23e8	0.01544
101	0xb7a7	-0.4783
102	0xb0fe	-0.156
103	0xa729	-0.02797
104	0xada5	-0.0882
105	0xae47	-0.0981
106	0x2cd5	0.0755
107	0x3146	0.1648
108	0xb422	-0.2583
109	0xb111	-0.1583
110	0xb49b	-0.2878
111	0x2cba	0.07385
112	0x284c	0.03357
113	0xacdc	-0.0759
114	0x29c0	0.04492
115	0x2fa0	0.11914
116	0x2e30	0.0967
117	0x2419	0.016
118	0xab7f	-0.05856
119	0x262c	0.02411
120	0x2e3e	0.09753
121	0xb105	-0.1569
122	0x2aef	0.05417
123	0x2a69	0.05008
124	0xb06c	-0.1382
125	0xb144	-0.1646
126	0x2c74	0.0696
127	0xa6a7	-0.02599
128	0xb02c	-0.1304
129	0xac02	-0.0626
130	0xac4e	-0.06726
131	0x298e	0.0434
132	0x24e9	0.01918
133	0xa462	-0.01712
134	0xb4b2	-0.2935
135	0xafde	-0.1229
136	0x342b	0.2605
137	0xa223	-0.011986
138	0xa81f	-0.0322
139	0x9fdc	-0.007675
140	0x31ba	0.179
141	0xab8e	-0.05902
142	0x227a	0.01265
143	0x2431	0.01637
144	0x2ee6	0.1078
145	0xac0c	-0.06323
146	0xa130	-0.01013
147	0xa6e3	-0.0269
148	0xa97f	-0.04294
149	0x30bb	0.1478
150	0x3163	0.1683
151	0xb2ac	-0.2085
152	0xa870	-0.03467
153	0xad50	-0.083
154	0xb131	-0.1622
155	0xb483	-0.282
156	0xb34a	-0.2278
157	0x3081	0.1407
158	0x9573	-0.00133
159	0xb21d	-0.191
160	0x29c4	0.04504
161	0x26f1	0.02711
162	0x33e5	0.2467
163	0xabd8	-0.06128
164	0x309e	0.1443
165	0xaadd	-0.05362
166	0x2fb3	0.1203
167	0xb173	-0.1703
168	0x1777	0.001822
169	0xaf99	-0.1187
170	0xad4c	-0.08276
171	0xb35a	-0.2297
172	0xaec6	-0.10583
173	0x92e1	-0.0008397
174	0x2f24	0.1116
175	0x2369	0.01447
176	0xa974	-0.0426
177	0x2103	0.00979
178	0x302e	0.1306
179	0x3234	0.1938
180	0x310c	0.1577
181	0xaae0	-0.0537
182	0x2f55	0.11456
183	0x2e4b	0.0983
184	0xae70	-0.1006
185	0xb3b4	-0.2407
186	0xb307	-0.2196
187	0x3487	0.283
188	0xae9f	-0.10345
189	0xb111	-0.1583
190	0xb0a4	-0.145
191	0x3038	0.1318
192	0xb4cf	-0.3005
193	0xacaa	-0.0729
194	0xa901	-0.0391
195	0xa97d	-0.04288
196	0xb223	-0.1918
197	0x2e0b	0.0944
198	0xad55	-0.0833
199	0xacc2	-0.07434
200	0xa51c	-0.01996
201	0x24bb	0.01848
202	0xa618	-0.0238
203	0x1f27	0.006985
204	0xa65f	-0.02489
205	0x2f68	0.1157
206	0x317a	0.1711
207	0xb27b	-0.2025
208	0x2c04	0.06274
209	0x33e5	0.2467
210	0x29aa	0.04425
211	0xa4c8	-0.01868
212	0xa40d	-0.01582
213	0x2909	0.03934
214	0xae19	-0.0953
215	0x2ff9	0.1246
216	0x965f	-0.001555
217	0x29f6	0.04657
218	0xa608	-0.02356
219	0xb2be	-0.2107
220	0xb580	-0.3438
221	0xa56a	-0.02115
222	0xa96b	-0.04233
223	0xa97a	-0.0428
224	0xaaf6	-0.05438
225	0x2978	0.04272
226	0xaf2d	-0.1121
227	0xa9c5	-0.04507
228	0x2ae7	0.05392
229	0x2982	0.04303
230	0x2a83	0.05087
231	0x2406	0.01572
232	0xa4e2	-0.01907
233	0xa6ae	-0.0261
234	0xad9d	-0.0877
235	0x2fd0	0.1221
236	0x2fe8	0.12354
237	0xb0cb	-0.1498
238	0xab0d	-0.05508
239	0xab1f	-0.05563
240	0xac65	-0.06866
241	0xa54b	-0.02068
242	0x26b9	0.02626
243	0x2b1f	0.05563
244	0x2a95	0.05142
245	0x25fc	0.02338
246	0x31d0	0.1816
247	0xb613	-0.3796
248	0xab06	-0.05487
249	0x27fa	0.03116
250	0x2a9e	0.0517
251	0xa755	-0.02864
252	0xb006	-0.1257
253	0xa7a3	-0.02983
254	0x2a75	0.05045
255	0xa208	-0.01178

body.12.bias f2 [24]
0	0x2b64	0.05774
1	0xa047	-0.008354
2	0x312f	0.162
3	0xa00d	-0.00791
4	0x315e	0.1677
5	0x2ebf	0.1054
6	0xac5d	-0.0682
7	0x2c1c	0.0642
8	0xae6b	-0.1003
9	0x33c4	0.2427
10	0x9cdc	-0.004745
11	0xb162	-0.1682
12	0x25db	0.02287
13	0x2c72	0.06946
14	0x2322	0.01393
15	0x2f34	0.11255
16	0xaf4d	-0.1141
17	0x22b3	0.013084
18	0xa0b1	-0.00916
19	0xb3aa	-0.2395
20	0xaa5d	-0.0497
21	0x2d83	0.0861
22	0x2cb7	0.07367
23	0x2098	0.00897

body.13.weight f2 [24]
0	0x295f	0.04196
1	0x2d1f	0.08
2	0x2e60	0.0996
3	0x2697	0.02574
4	0x96e7	-0.001685
5	0x20be	0.00926
6	0x2c9c	0.072
7	0xa928	-0.04028
8	0x276d	0.029
9	0x2d60	0.084
10	0x294a	0.04132
11	0x9954	-0.002602
12	0x2527	0.02013
13	0x2b4e	0.05707
14	0x216b	0.01058
15	0x2a25	0.048
16	0x2209	0.01179
17	0x2188	0.0108
18	0xa42d	-0.01631
19	0x281e	0.03217
20	0x11e6	0.00072
21	0x1ab1	0.003267
22	0x289c	0.036
23	0xad6f	-0.0849

body.14.weight f2 [24, 24, 3, 3]
0	0x307e	0.1404
1	0x2e04	0.094
2	0xb131	-0.1622
3	0x2f84	0.11743
4	0xaf87	-0.1176
5	0xafb8	-0.1206
6	0x2f85	0.1175
7	0xaa55	-0.04947
8	0x2a87	0.051
9	0xaef5	-0.1087
10	0xb030	-0.1309
11	0xabe6	-0.0617
12	0xacb3	-0.0734
13	0x31dc	0.1831
14	0xab4f	-0.0571
15	0xaa10	-0.04736
16	0x2bfc	0.06238
17	0xb311	-0.2208
18	0x2543	0.02055
19	0xb42a	-0.2603
20	0x2b73	0.0582
21	0xb18f	-0.1737
22	0xb36c	-0.2319
23	0xb4e3	-0.3054
24	0xb5a1	-0.3518
25	0x2f18	0.11084
26	0xacbc	-0.074
27	0xa9eb	-0.04623
28	0x318a	0.1731
29	0xaed1	-0.1065
30	0x3058	0.1357
31	0x2e0e	0.0946
32	0xac36	-0.0658
33	0xa8f6	-0.03876
34	0x2cc4	0.07446
35	0x2eec	0.10815
36	0xad88	-0.0864
37	0xb277	-0.202
38	0xb09e	-0.1443
39	0xa689	-0.02553
40	0xaef1	-0.10846
41	0xa9aa	-0.04425
42	0xaecc	-0.1062
43	0x2f96	0.1185
44	0x2ecf	0.1064
45	0xa9c9	-0.0452
46	0xac98	-0.0718
47	0x30ec	0.1538
48	0x34a2	0.2896
49	0x2fb7	0.12054
50	0xad2b	-0.08075
51	0xa419	-0.016
52	0xa869	-0.03445
53	0xb046	-0.1335
54	0xb0c7	-0.1493
55	0x3038	0.1318
56	0xb250	-0.1973
57	0xb1e1	-0.1837
58	0xb5fd	-0.3743
59	0xa98c	-0.04333
60	0x2e03	0.09393
61	0xac59	-0.06793
62	0xb036	-0.1316
63	0x202d	0.008156
64	0x3157	0.1669
65	0xb49d	-0.2883
66	0x19c7	0.002821
67	0x2b0c	0.05505
68	0x28d5	0.03775
69	0xa49f	-0.01805
70	0x80c2	-1.156e-05
71	0xa90e	-0.0395
72	0xaafb	-0.05453
73	0x2dfe	0.0936
74	0xb389	-0.2355
75	0xa26b	-0.012535
76	0xad54	-0.08325
77	0xb0c1	-0.1486
78	0xb229	-0.1925
79	0x2fa6	0.1195
80	0xadeb	-0.09247
81	0xafc2	-0.1212
82	0xa3c5	-0.015175
83	0xafc8	-0.1216
84	0xb276	-0.2019
85	0x2d73	0.08514
86	0x3215	0.1901
87	0x2cd7	0.0756
88	0x1e92	0.006416
89	0x2d49	0.0826
90	0x2f39	0.11285
91	0xac93	-0.0715
92	0xb2be	-0.2107
93	0xa8c0	-0.0371
94	0x30db	0.1517
95	0x9a05	-0.00294
96	0xb25a	-0.1985
97	0x3177	0.1708
98	0xaa86	-0.05096
99	0x2d8c	0.0867
100	0x296d	0.0424
101	0x309e	0.1443
102	0xad9b	-0.0876
103	0xb2bb	-0.2103
104	0xacd5	-0.0755
105	0xab97	-0.0593
106	0x2238	0.012146
107	0x2db4	0.0891
108	0x21ee	0.01158
109	0xb35d	-0.2301
110	0x25e8	0.02307
111	0xb446	-0.267
112	0xa34b	-0.014244
113	0xafe3	-0.1232
114	0xb48e	-0.2847
115	0xb328	-0.2236
116	0xa93c	-0.0409
117	0x2e0a	0.09436
118	0xadae	-0.08875
119	0x18a6	0.00227
120	0xb6be	-0.4214
121	0x3013	0.1273
122	0x2a59	0.0496
123	0xaf1f	-0.11127
124	0x3432	0.2622
125	0x3042	0.133
126	0xb646	-0.392
127	0xb775	-0.466
128	0x319c	0.1753
129	0x2df6	0.09314
130	0x2ba1	0.0596
131	0x2d47	0.08246
132	0xb56b	-0.3386
133	0xac3d	-0.0662
134	0x2dc6	0.0902
135	0xac5c	-0.0681
136	0xa9fb	-0.04672
137	0x2aee	0.05414
138	0xacf1	-0.0772
139	0xabfc	-0.06238
140	0x2e69	0.10016
141	0x3068	0.1377
142	0x2e08	0.09424
143	0xb26a	-0.2004
144	0xa74b	-0.02849
145	0xae44	-0.0979
146	0xa45b	-0.01701
147	0xa61b	-0.02385
148	0x27fe	0.03122
149	0xa968	-0.04224
150	0x2cfb	0.0778
151	0x1f94	0.0074
152	0x2594	0.02179
153	0xb891	-0.571
154	0x2a65	0.04996
155	0xb282	-0.2034
156	0x29e2	0.04596
157	0x3554	0.333
158	0x3183	0.1722
159	0x2870	0.03467
160	0xaac2	-0.0528
161	0xb0d0	-0.1504
162	0x217b	0.010704
163	0xb7f3	-0.4968
164	0x3452	0.27
165	0x3210	0.1895
166	0x282a	0.03253
167	0x31e4	0.1841
168	0x2fd8	0.12256
169	0x3411	0.2542
170	0xb133	-0.1625
171	0x32fd	0.2184
172	0xae15	-0.09503
173	0xa55d	-0.02095
174	0xb31a	-0.2219
175	0x2f94	0.1184
176	0xae7a	-0.1012
177	0xbb14	-0.885
178	0x2f2c	0.11206
179	0xb31e	-0.2224
180	0xa419	-0.016
181	0xa076	-0.00871
182	0xa998	-0.0437
183	0x305c	0.1362
184	0xb332	-0.2249
185	0xa87c	-0.03503
186	0xa72e	-0.02805
187	0xae7b	-0.10126
188	0x2d04	0.07837
189	0xae59	-0.0992
190	0x2aa3	0.05185
191	0x2b31	0.05618
192	0xaf96	-0.1185
193	0xb0cd	-0.15
194	0xb075	-0.1393
195	0xa58e	-0.0217
196	0xae90	-0.10254
197	0xacda	-0.0758
198	0xabee	-0.06195
199	0xaea9	-0.10406
200	0xafae	-0.12
201	0xa5ae	-0.02219
202	0x34a9	0.2913
203	0x341d	0.257
204	0x28c2	0.03717
205	0x3065	0.1373
206	0x32dc	0.2144
207	0xade3	-0.092
208	0xaa2f	-0.0483
209	0xb26a	-0.2004
210	0xb444	-0.2666
211	0xadc0	-0.08984
212	0xb405	-0.2512
213	0x29e4	0.04602
214	0x9189	-0.0006757
215	0xb47e	-0.2808
216	0xa435	-0.01643
217	0xb431	-0.262
218	0x26dd	0.02681
219	0x3029	0.13
220	0x2802	0.0313
221	0x2b9c	0.05945
222	0x25c1	0.02248
223	0x2b1a	0.05548
224	0x2649	0.02455
225	0xacab	-0.07294
226	0xb088	-0.1416
227	0xa772	-0.02908
228	0xb06c	-0.1382
229	0x2da5	0.0882
230	0xb2bd	-0.2106
231	0xb016	-0.1277
232	0xaad4	-0.05334
233	0xa402	-0.01566
234	0xa9fe	-0.0468
235	0xb07c	-0.1401
236	0xae69	-0.10016
237	0x3462	0.274
238	0xa207	-0.01177
239	0xae28	-0.0962
240	0xb36d	-0.232
241	0x27d3	0.03056
242	0xb1f6	-0.1863
243	0xb55b	-0.3347
244	0xa8ec	-0.03845
245	0xad66	-0.08435
246	0xb885	-0.565
247	0x30d1	0.1505
248	0xab14	-0.0553
249	0x26e3	0.0269
250	0xb46e	-0.2769
251	0xb23e	-0.1951
252	0xb3e6	-0.2468
253	0xb4a4	-0.29
254	0xa7e6	-0.03085
255	0xaef7	-0.1088

body.14.bias f2 [24]
0	0x3062	0.137
1	0x338e	0.2361
2	0x9c31	-0.004093
3	0x2704	0.0274
4	0x2e9f	0.10345
5	0x2d19	0.07965
6	0x2d06	0.0785
7	0x2d57	0.08344
8	0x2da8	0.0884
9	0x30b5	0.1471
10	0x2a3a	0.04865
11	0x331f	0.2225
12	0x29e6	0.04608
13	0x3183	0.1722
14	0x2e8b	0.10223
15	0x3175	0.1705
16	0x3022	0.1292
17	0xa6b9	-0.02626
18	0x3229	0.1925
19	0xa0b1	-0.00916
20	0x3002	0.1252
21	0x2c5e	0.06824
22	0x30d2	0.1506
23	0x2864	0.0343

body.15.weight f2 [24]
0	0x2c75	0.06964
1	0x2933	0.04062
2	0xa74e	-0.02853
3	0xa93b	-0.04086
4	0x1f07	0.006863
5	0x28ea	0.0384
6	0xb04c	-0.1343
7	0x207c	0.00876
8	0xa2f0	-0.01355
9	0xa8f4	-0.0387
10	0xa7ae	-0.03
11	0x2692	0.02567
12	0x2631	0.02419
13	0xace4	-0.0764
14	0x2ad6	0.0534
15	0x2181	0.01075
16	0xa61a	-0.02383
17	0xa904	-0.03918
18	0xaf9f	-0.1191
19	0xa5e2	-0.02298
20	0x1580	0.001343
21	0xadb9	-0.0894
22	0xa50a	-0.01968
23	0x2e39	0.0972

body.16.weight f2 [24, 24, 3, 3]
0	0x268b	0.02556
1	0x3020	0.1289
2	0xad9f	-0.0878
3	0x3467	0.2751
4	0x2895	0.0358
5	0xac07	-0.0629
6	0x2fd1	0.12213
7	0xb34b	-0.2279
8	0xa321	-0.01392
9	0x2d6d	0.0848
10	0xac3b	-0.0661
11	0x3064	0.1372
12	0x32fb	0.2181
13	0x3176	0.1707
14	0xaf67	-0.11566
15	0x3231	0.1935
16	0xb087	-0.1415
17	0xb097	-0.1434
18	0x1a34	0.003029
19	0xb49c	-0.288
20	0x2d86	0.0863
21	0x2daf	0.0888
22	0xac09	-0.06305
23	0xaf11	-0.1104
24	0xb1f7	-0.1864
25	0x2e2b	0.0964
26	0xb205	-0.1881
27	0x30fb	0.1556
28	0x28e1	0.03812
29	0xa89a	-0.03595
30	0x3409	0.2522
31	0xb24e	-0.197
32	0xa7b6	-0.03012
33	0xad67	-0.0844
34	0xafb8	-0.1206
35	0xb470	-0.2773
36	0xad18	-0.0796
37	0x2bcc	0.0609
38	0x20c7	0.00933
39	0xad40	-0.08203
40	0xb4db	-0.3035
41	0xb198	-0.1748
42	0xa9eb	-0.04623
43	0x2eb5	0.1048
44	0xac4c	-0.06714
45	0xae82	-0.1017
46	0xaefa	-0.109
47	0xb461	-0.2737
48	0xac2e	-0.0653
49	0xb44f	-0.2693
50	0x2f53	0.11444
51	0xadd0	-0.0908
52	0x28b9	0.0369
53	0xb521	-0.3206
54	0xb3a5	-0.2389
55	0xac39	-0.066
56	0xb323	-0.223
57	0x2bd3	0.06113
58	0xb05a	-0.136
59	0xa54d	-0.0207
60	0xb4d3	-0.3015
61	0x1c0f	0.003963
62	0xb1d9	-0.1827
63	0xb24b	-0.1967
64	0x2a2f	0.0483
65	0xb158	-0.167
66	0xadc1	-0.0899
67	0xaba9	-0.05984
68	0x9dfd	-0.005848
69	0xa647	-0.02452
70	0xb126	-0.1609
71	0xb320	-0.2227
72	0xaf1b	-0.111
73	0x2c6b	0.06903
74	0xb839	-0.528
75	0xb282	-0.2034
76	0xab94	-0.0592
77	0x3159	0.1671
78	0x31da	0.1829
79	0xb560	-0.336
80	0x2c90	0.0713
81	0xa62a	-0.02408
82	0xabb2	-0.06012
83	0xb0a3	-0.1449
84	0x2cfd	0.07794
85	0xb44e	-0.269
86	0xb357	-0.2294
87	0x3052	0.135
88	0xb4cf	-0.3005
89	0xaeb7	-0.1049
90	0x2590	0.02173
91	0xafde	-0.1229
92	0xad74	-0.0852
93	0xb8f6	-0.62
94	0x302a	0.1301
95	0x32d1	0.213
96	0x2b97	0.0593
97	0x2b53	0.05722
98	0x2c48	0.0669
99	0xac47	-0.06683
100	0xa8cd	-0.0375
101	0xaef7	-0.1088
102	0xb20f	-0.1893
103	0x1c4a	0.00419
104	0x31ed	0.1852
105	0xace9	-0.0767
106	0x2dd2	0.09094
107	0x22c5	0.01322
108	0x3275	0.2018
109	0xa9aa	-0.04425
110	0xaaf2	-0.05426
111	0xb308	-0.2197
112	0xb59a	-0.35
113	0x225b	0.01241
114	0x2dd6	0.0912
115	0xb5da	-0.3657
116	0xb2e1	-0.215
117	0xb171	-0.17
118	0x238f	0.01476
119	0xb568	-0.338
120	0xafe3	-0.1232
121	0xaae0	-0.0537
122	0xb348	-0.2275
123	0xae20	-0.0957
124	0xaf94	-0.1184
125	0x1d69	0.005283
126	0xaa36	-0.04852
127	0xb106	-0.157
128	0xb180	-0.1719
129	0xae92	-0.10266
130	0x2c5d	0.0682
131	0xae67	-0.10004
132	0x31e9	0.1847
133	0xb5e6	-0.3687
134	0xacc5	-0.0745
135	0x2e16	0.0951
136	0xb235	-0.194
137	0x31ad	0.1774
138	0x28d5	0.03775
139	0xb0fb	-0.1556
140	0x29fa	0.0467
141	0xa974	-0.0426
142	0x3184	0.1724
143	0xa77b	-0.02922
144	0x308a	0.1418
145	0x2273	0.012596
146	0x2d0c	0.07886
147	0xa074	-0.0087
148	0x3015	0.1276
149	0x307a	0.1399
150	0x244c	0.01678
151	0xaee6	-0.1078
152	0x2c89	0.07086
153	0xa8b3	-0.0367
154	0x2d39	0.0816
155	0x2c73	0.0695
156	0x30cb	0.1498
157	0xb653	-0.3953
158	0xa497	-0.01793
159	0xb204	-0.188
160	0x30ab	0.1459
161	0x3143	0.1644
162	0x2ce8	0.07666
163	0xab21	-0.0557
164	0x2dc2	0.08997
165	0x2b0b	0.05502
166	0xac65	-0.06866
167	0xb4c6	-0.2983
168	0x2a5a	0.04962
169	0x2c1f	0.0644
170	0xb494	-0.2861
171	0xb874	-0.5566
172	0xb019	-0.128
173	0x26f3	0.02715
174	0x1d80	0.00537
175	0x285b	0.03403
176	0xa1d7	-0.011406
177	0x2181	0.01075
178	0x2c4c	0.06714
179	0xb279	-0.2023
180	0x2a75	0.05045
181	0xb0ed	-0.1539
182	0xb10f	-0.1581
183	0x30ee	0.154
184	0x1c74	0.00435
185	0x25c1	0.02248
186	0xa990	-0.04346
187	0x2273	0.012596
188	0xb70d	-0.4407
189	0x1ca5	0.004536
190	0x336e	0.2322
191	0xb26d	-0.2008
192	0x22f1	0.01356
193	0x2dc2	0.08997
194	0xb0b3	-0.1469
195	0x2a4c	0.0492
196	0x28ad	0.03653
197	0x31f2	0.1858
198	0x323e	0.1951
199	0xa8c6	-0.0373
200	0xb32d	-0.2242
201	0xa434	-0.01642
202	0xa3b8	-0.015076
203	0xb2dd	-0.2145
204	0xb1ba	-0.179
205	0x2d90	0.0869
206	0x2e9b	0.1032
207	0x305f	0.1366
208	0x30b1	0.1466
209	0x2fce	0.12195
210	0xa418	-0.01599
211	0xb1fc	-0.187
212	0x2c6b	0.06903
213	0x8cd7	-0.0002954
214	0xab67	-0.05783
215	0xb463	-0.2742
216	0x2c84	0.07056
217	0x99ec	-0.002892
218	0x358c	0.3467
219	0x3287	0.204
220	0x2b84	0.05872
221	0x3336	0.2253
222	0xaf08	-0.10986
223	0x2cd5	0.0755
224	0xa2b6	-0.01311
225	0x2b77	0.05832
226	0x22fa	0.013626
227	0x352f	0.324
228	0xa900	-0.03906
229	0x342b	0.2605
230	0xaba9	-0.05984
231	0x9ec1	-0.006596
232	0x2eaa	0.1041
233	0x2a5b	0.04965
234	0xb7f7	-0.4978
235	0xab12	-0.05524
236	0xaf66	-0.1156
237	0xa286	-0.01274
238	0x2f50	0.11426
239	0xac92	-0.0714
240	0x33cb	0.2435
241	0x29c6	0.0451
242	0x3401	0.2502
243	0x1f38	0.00705
244	0x3016	0.1277
245	0xa671	-0.02516
246	0xace9	-0.0767
247	0x28bf	0.03708
248	0xb617	-0.3806
249	0xb6b3	-0.4187
250	0x3252	0.1975
251	0xa1a6	-0.01103
252	0xb118	-0.1592
253	0xac82	-0.07043
254	0xb009	-0.1261
255	0xaccc	-0.07495

body.16.bias f2 [24]
0	0x2609	0.02357
1	0x2606	0.02353
2	0x3075	0.1393
3	0x2fcf	0.122
4	0xafad	-0.11993
5	0xad1c	-0.07983
6	0x2b92	0.05914
7	0x1046	0.0005217
8	0x2ecd	0.10626
9	0xa9a9	-0.04422
10	0x2cfb	0.0778
11	0x2cb2	0.07336
12	0x106d	0.0005403
13	0x3018	0.1279
14	0xb500	-0.3125
15	0x2c28	0.06494
16	0x3013	0.1273
17	0x3035	0.1315
18	0x2e41	0.0977
19	0x2b65	0.05777
20	0x2281	0.0127
21	0x2e81	0.1016
22	0x2fea	0.12366
23	0xb459	-0.2717
